models/lenet_cifar.pkl (torch, 250951 bytes, 10 tensors)

cnn0.weight f4 [6, 3, 5, 5]
000000 b8 3e d8 3d 35 62 b0 bd bf 1b bf bd 45 f1 c5 3d
       0.10558838 -0.086124815 -0.09331464 0.09665159
000010 eb 8a 39 3d f4 1c 35 3e 0a f1 23 be a2 d6 33 3e
       0.045298498 0.17686826 -0.16009918 0.17562345
000020 6a 63 14 bf 66 fd bb 3e ec f7 df 3d cc 45 9f be
       -0.57964194 0.36716765 0.10935959 -0.31107938
000030 bf 6c 50 3f a3 48 9e bf 0d 5d 04 3f 74 b3 21 3e
       0.81415933 -1.2365917 0.51704484 0.15791112
000040 fc c8 a8 be ab 89 51 3f 2b 62 85 bf a6 66 b8 3e
       -0.3296584 0.8185069 -1.0420583 0.36015815
000050 6c 96 ec 3d d5 37 4c bd cb b0 a0 3e 32 4e ec be
       0.11552128 -0.049857933 0.31384882 -0.46153408
000060 fb 41 fa 3d 8b 49 1d bd 6f 3a 1d 3c a6 3e 91 3c
       0.12219616 -0.038400214 0.009596451 0.017730068
000070 5d 93 b9 bd 05 75 33 3c 09 b2 ea bc 32 57 20 bb
       -0.090613104 0.010953193 -0.028649347 -0.0024466035
000080 df 0f d4 3e 64 93 31 bf 8e 6d bc 3e 18 b7 dc bc
       0.4141836 -0.69365525 0.36802334 -0.026942775
000090 80 2d 4d be d5 7f 87 3f 06 4e 9f bf c5 83 0b 3f
       -0.20036888 1.0585886 -1.2445686 0.5449794
0000a0 c9 66 2e bd 1a c5 c6 be b7 ca 81 3f e1 1b 80 bf
       -0.042578492 -0.38822252 1.0139989 -1.0008508
0000b0 c9 20 e7 3e 09 2f 2c be 3f 0d df bd a1 ca cf 3e
       0.451422 -0.16814817 -0.10891198 0.4058428
0000c0 d0 cc d4 be e3 6a ff 3d 56 a0 d0 bd 05 ed ca 3d
       -0.4156251 0.12471559 -0.10186832 0.09908489
0000d0 3f e5 8a bc 35 eb 97 3c be e5 ce bd 60 74 58 bd
       -0.016955016 0.018544773 -0.101024136 -0.05284536
0000e0 e2 40 2a 3c af ee b5 3e f2 97 0b bf ff f5 7a 3e
       0.010391446 0.35533664 -0.54528725 0.24507903
0000f0 80 78 7d bd a7 da 2a be 93 e3 6f 3f 7b 1f 88 bf
       -0.061882496 -0.16684972 0.93706626 -1.0634607
000100 99 f5 e0 3e 11 eb 7b bc 95 b3 a9 be 1a 66 74 3f
       0.43937376 -0.015375868 -0.33144823 0.95468295
000110 a8 dd 65 bf 00 32 9b 3e d2 e6 5d bd ca d8 e6 3a
       -0.89791346 0.30311584 -0.054175206 0.0017612216
000120 d2 ea c7 3e 98 37 b3 be 3a 56 a8 3d 9c 6c 55 3e
       0.3904634 -0.35003352 0.082195714 0.20842212
000130 c2 5b 88 bd a5 c1 72 3c b8 3a cf 3d 35 6f 73 3e
       -0.066581264 0.014816676 0.101186216 0.23772891
000140 96 16 d7 3d c1 1d 32 be 44 c3 d4 be 31 c0 af be
       0.10502355 -0.17394163 -0.41555226 -0.34326318
000150 58 77 43 bd 73 17 22 3d 72 2a 9f be 7f cd 04 bf
       -0.047721237 0.039573144 -0.3108707 -0.5187606
000160 87 8c 12 bf f9 2b 27 be 1e 4a ce 3d 5b 47 85 be
       -0.5724568 -0.16325368 0.100727305 -0.26031002
000170 62 68 72 be 33 c1 a4 be 48 ce 39 3d f4 7a 4f 3e
       -0.23672631 -0.3217865 0.04536274 0.20261747
000180 21 e8 25 be 5d 3c 98 bd 20 32 3d 3e 44 76 6c 3e
       -0.16201831 -0.074333884 0.18476152 0.2309199
000190 e7 b0 6c be 0c a3 e3 bd ff 05 80 3c 20 32 f6 3d
       -0.23114358 -0.11115083 0.01562786 0.12021279
0001a0 4c 37 07 3d 4c 72 e3 bd 04 c0 18 3e 4f 72 07 3e
       0.03301172 -0.11105785 0.14916998 0.13227199
0001b0 fc b2 32 3e 96 ef 80 3e 2b 6f b7 bd 2e 94 dc 3d
       0.1745109 0.2518279 -0.089567505 0.107704505
0001c0 fc 34 2e 3e d8 f6 00 3e a8 82 1f 3e fb dc 9c bd
       0.170124 0.12594163 0.15577185 -0.07659336
0001d0 50 b6 e8 bb cf df f5 3d 15 45 4f bd c8 2b 78 bd
       -0.0071018115 0.12005579 -0.05060299 -0.060588628
0001e0 71 9c 6d bd da 51 40 be 46 02 50 be 9b e8 74 bd
       -0.058010522 -0.18781224 -0.20313367 -0.059792142
0001f0 10 11 aa be 80 b7 70 be 11 0b d9 3d b3 d5 fd 3d
       -0.33216143 -0.235075 0.10597814 0.123942755
000200 1b ce 08 3e 9e fa aa be 53 00 86 bd 46 b7 ce 3e
       0.13359873 -0.3339433 -0.065430306 0.40374202
000210 dd e7 c4 3e 2d 2c cd 3e e5 87 05 3c da c4 a4 bd
       0.38458148 0.40072766 0.008150076 -0.08045359
000220 1f 69 ac 3e 3d 5a aa 3e 80 bf cd 3e c7 80 2a 3d
       0.3367395 0.3327197 0.40185165 0.041626718
000230 60 77 87 3d 9b 12 88 3e 43 6a b7 3e 34 b8 7b 3e
       0.06614566 0.26576695 0.3582326 0.24581987
000240 99 8a 95 bd 57 e4 e5 3d bc 6a 07 3e 06 21 52 3d
       -0.07301826 0.11225193 0.1322431 0.051301025
000250 d1 f9 c2 3d ef 59 93 be 9f a6 8a 3c 8f b2 f3 bd
       0.09520305 -0.2877955 0.016925154 -0.11899292
000260 58 02 b0 be 9d df 19 be e1 6f 93 bd 66 51 ca 3d
       -0.34376788 -0.15026708 -0.071990736 0.09878807
000270 e4 0d 39 3e 32 59 b9 3d 36 bd ec be 6a 00 23 be
       0.18071705 0.09050216 -0.46238106 -0.15918127
000280 80 9e cb 3d 5c 1f cd 3c 99 08 d2 3e 19 38 78 3e
       0.09942341 0.025039367 0.41022184 0.2424015
000290 49 b6 2c be be 4e 3b 3e 87 8c 5e 3d 6a 7f 99 3d
       -0.16866411 0.18291757 0.054333236 0.074950054
0002a0 2a fb 89 3e 2b e1 59 3e 85 16 2e 3e f1 94 ef 3d
       0.26949435 0.21277301 0.17000778 0.1169833
0002b0 85 c6 f4 3d f1 e5 72 3d 33 c4 35 3e 50 f1 f0 bc
       0.11951927 0.05930132 0.17750625 -0.029411942
0002c0 12 5a 16 3c f8 66 4b be 67 1e b7 3d e0 a1 a8 3e
       0.009176748 -0.19863498 0.08941346 0.32936
0002d0 dc f7 c9 bd 80 21 8f 3e ac 89 0a 3e b5 f3 f1 be
       -0.098617285 0.27955246 0.1352908 -0.47256246
0002e0 6d b4 4a bd 7e 52 12 be 83 16 cf bd 33 f7 96 3e
       -0.049488474 -0.14289281 -0.10111716 0.29485473
0002f0 3e 6e 1d 3e aa b3 54 be ad 79 5e be 80 f7 a5 bd
       0.15374085 -0.20771661 -0.21726103 -0.081038475
000300 20 90 97 bd 6e 30 dc 3d 83 93 68 bd ed 65 51 be
       -0.074005365 0.10751425 -0.056781303 -0.20449038
000310 1a ad b6 bd ae e6 27 bd df b7 ad 3b 94 ed a7 3d
       -0.08919735 -0.040991478 0.00530146 0.08199611
000320 32 77 35 3e 8f ec eb 3d 59 17 6b be 03 00 89 bd
       0.1772125 0.11519729 -0.22958125 -0.06689455
000330 c8 42 72 3e 17 a0 a7 3c 5c e6 81 3e 04 a9 f2 3d
       0.23658288 0.020462079 0.25371063 0.118486434
000340 c0 bc e7 be 2d 0f 24 be ed 3d 85 3c e4 6a e4 bb
       -0.45261192 -0.16021414 0.01626488 -0.00697075
000350 73 3f b8 3e eb 24 4b 3e 46 c1 1e be ee 33 d9 3d
       0.35985908 0.19838302 -0.15503415 0.10605608
000360 a2 04 a6 bd ed be ba bd 67 b1 f3 3d cd 31 ff bc
       -0.081063524 -0.091184475 0.11899071 -0.031151677
000370 34 94 3c 3e b8 3c 57 3b 2f 9f 8f bd 25 5d de bc
       0.1841591 0.0032842588 -0.07012784 -0.027144024
000380 37 0a b6 bc df d4 44 be bb cd 2c 3f 21 d8 b8 be
       -0.022221668 -0.19221829 0.6750142 -0.36102393
000390 2f f9 92 be 1b 75 49 3e a3 9f da bb 02 5c 64 be
       -0.28705737 0.19673578 -0.006671862 -0.22300723
0003a0 0e 25 58 be 77 86 3b 3e 45 ff 59 3e 0c 06 6e be
       -0.21107885 0.18313013 0.21288784 -0.23244494
0003b0 bf d0 9b bf 53 da 64 3f cb 7d 84 3f 6f 52 e6 be
       -1.2173079 0.89395636 1.0350889 -0.44984767
0003c0 fb 4b 1e 3e 3a 63 e5 3e 4e a7 89 be c1 3e 17 bf
       0.15458672 0.44802266 -0.26885456 -0.5908013
0003d0 fa b0 8f 3e 46 c7 c5 3d 50 8e 9a 3e ae 1e d5 3a
       0.2806471 0.09657149 0.301867 0.0016259754
0003e0 24 d6 39 be 0a db 95 bd 47 6f ac bd 51 cc 3d 3f
       -0.18148094 -0.07317169 -0.08419662 0.7413989
0003f0 b3 c7 90 be 7b 2a b9 be 87 ee db 3d 52 4a 21 3e
       -0.28277358 -0.36165223 0.10738855 0.15751007

cnn0.bias f4 [6]
000000 1e 9a d2 bd 8a 4a 52 3f ac a9 83 3f 2c 1f 33 be
       -0.10283302 0.8214499 1.0286155 -0.1749236
000010 0f 08 d2 be ff c9 27 be
       -0.41021773 -0.16385649

cnn1.weight f4 [16, 6, 5, 5]
000000 a9 ce 92 3d 78 e4 ce 3c 33 97 3f bd 0d 42 ab bd
       0.071683235 0.025255427 -0.046775054 -0.083622076
000010 c7 03 b3 ba af b8 cf 3d 5b 81 86 bd b6 f4 6c be
       -0.0013657742 0.101426475 -0.06567641 -0.23140225
000020 18 94 91 be 4b ba b1 bd b5 7b b9 bd 42 4b ec be
       -0.284333 -0.08678111 -0.09056798 -0.46151167
000030 78 2b 2f bf 89 d4 0a bf 11 53 e7 bd e0 7e 75 be
       -0.68425703 -0.5423055 -0.112951405 -0.2397418
000040 02 17 20 bf 8e 13 4d bf e1 0e 03 bf a7 3b c8 bd
       -0.6253511 -0.80107963 -0.5119458 -0.09777003
000050 8a 49 60 be 5e 61 17 bf d3 45 21 bf cc f6 b5 be
       -0.21903053 -0.59132946 -0.6299717 -0.35539854
000060 28 a5 89 bd 0a 83 50 3d b2 e3 92 bd 17 75 8b 3c
       -0.06720954 0.05090622 -0.07172336 0.017023606
000070 01 73 05 bd fa ae 1f 3e a9 64 da 3c 07 a5 c5 bb
       -0.03258038 0.15594092 0.026659327 -0.0060316357
000080 75 b5 a2 3d 4a 28 25 3b 80 51 ab 3d 8b 31 5a 3d
       0.079447664 0.0025201016 0.08365154 0.053269904
000090 56 7b fb 3d 2f 5d 84 3d f1 8e 9a bd 93 bb 36 3d
       0.12279384 0.06463086 -0.07546795 0.04461248
0000a0 0b 9d 8c 3d fc 11 17 3c 3f e5 f9 bd 0b 38 27 be
       0.06865891 0.009220596 -0.12201928 -0.16329972
0000b0 04 01 95 3d 57 c6 5c 3d 2c 18 24 be 10 fe 15 be
       0.07275584 0.05390009 -0.16024846 -0.14647698
0000c0 37 e7 17 3a 80 1c d3 3e ed b6 bb 3c fb c5 aa 3d
       0.00057946466 0.4123268 0.022914374 0.08338543
0000d0 4f 87 d9 3d 00 fe db 3d 2d 85 53 3e c7 ac 58 bc
       0.10621511 0.10741806 0.20656271 -0.013224787
0000e0 2a f1 0e 3e 7c ca f1 3d 6b 05 36 3d 75 a7 e2 bc
       0.13959184 0.11806199 0.04443876 -0.02766774
0000f0 91 d8 b1 bc 0f 88 f6 3d fe a5 5e 3d ad 76 20 bd
       -0.021709712 0.1203767 0.05435752 -0.039175678
000100 2b 96 86 bc 32 7d 20 bb 31 d8 56 bb be ef 6f bd
       -0.016429028 -0.0024488685 -0.0032782669 -0.058578245
000110 f0 34 a7 bd b9 40 a8 3c b2 6c 54 3d 6e 22 a5 3d
       -0.08164394 0.020538675 0.051861472 0.080632076
000120 6e c3 d4 3c d0 5e 6a bd c6 a4 26 bd 03 68 1b 3e
       0.025972094 -0.057219326 -0.040684484 0.15176396
000130 5c 1e bb 3d 7a 82 55 3e 12 89 b3 3d 04 7d 11 3e
       0.0913665 0.20850554 0.087663785 0.14207846
000140 90 4f d5 3b 07 aa 66 3e 39 08 29 3e de 73 34 3e
       0.0065097287 0.22525798 0.16507043 0.17622325
000150 f8 b5 1e 3d ff 9c 0f 3e 13 af 50 3e c6 77 f2 3d
       0.038747758 0.14024733 0.20379286 0.11839251
000160 a2 8d 50 3c 51 0b 5d bd 87 85 4e 3e 1b 47 08 bd
       0.01272908 -0.05396587 0.20168124 -0.033270936
000170 a8 c5 46 be c8 51 1d be 7a 3e cc bc fa 48 94 bd
       -0.19411337 -0.15363228 -0.024932135 -0.07240482
000180 fd 38 aa be 35 c3 26 be db d6 c3 3d e1 8c 48 3e
       -0.33246604 -0.16285403 0.09562465 0.19584991
000190 9a 94 2a bb ca 17 2c 3d f4 52 68 3c d8 f7 e5 bc
       -0.0026028515 0.042014875 0.014179934 -0.028072283
0001a0 9c 8e 75 bc 92 34 81 3d 40 0b 1f 3e b6 77 0d bd
       -0.014987614 0.06308855 0.15531635 -0.034537993
0001b0 cb f2 f5 bd e6 68 3b 3b 5b fc 25 3e 65 6f 65 3d
       -0.120092 0.002859646 0.16209547 0.056014437
0001c0 f3 7e 1c be 8d aa 88 bd 52 fd c3 3c 38 fe ae 3d
       -0.15282802 -0.06673155 0.023924503 0.08544582
0001d0 68 9d d6 bc 19 47 1d be 49 eb e9 bd c5 97 22 3b
       -0.026198104 -0.15359153 -0.1142183 0.00248097
0001e0 3f 97 a6 3b e2 28 6b bd b5 46 8b bd f2 54 98 3c
       0.005083948 -0.057412036 -0.06800596 0.018595193
0001f0 fb f0 c6 3d 92 21 84 3d f1 34 d3 3b 4b 17 a7 3d
       0.09713932 0.064517155 0.00644552 0.0815874
000200 fd 69 0e 3e 98 4b 07 3e c2 d5 c4 3d 7f 32 0e 3d
       0.13907619 0.1321243 0.096110836 0.034716126
000210 43 7e 97 3d 7b 72 44 3c 2a c6 9e 3d 96 e6 d6 3d
       0.073971294 0.011990185 0.077526405 0.104931995
000220 46 f2 2d 3d 62 8c 0a 3e e8 18 56 3d bb 5a d1 3d
       0.042467378 0.13530114 0.052269846 0.102223836
000230 11 5f a2 bd 69 83 af 3c 5f 68 4f 3d 3f 24 8b 3c
       -0.07928289 0.021424966 0.050636645 0.016985057
000240 f4 38 e1 3d 4d a8 6a bc fb 05 9f bc 11 58 02 3d
       0.10997191 -0.014322353 -0.019412031 0.031822268
000250 46 da 43 3e 12 48 34 3e 05 cf 74 bd cf 4e a0 bd
       0.19126233 0.17605618 -0.05976774 -0.078275315
000260 c4 5a a3 bd ae eb 82 bd 85 e9 54 3d e4 73 93 bb
       -0.079762965 -0.063926086 0.051980514 -0.004499899
000270 2f 41 01 bd fb fc b8 bd 7f ea bd bc 92 47 4b 3d
       -0.031556305 -0.09032627 -0.023183106 0.0496288
000280 83 94 2a 3c 6d 5e 61 bc 0d 6f 86 bd d4 fd 00 bd
       0.0104113845 -0.013755423 -0.0656415 -0.03149207
000290 14 13 03 3d 90 2b 0c b8 e7 91 cf bc 70 8f 78 bd
       0.032000616 -3.341917e-05 -0.025338126 -0.060683668
0002a0 f3 c5 b7 bd 93 ea c6 bc d4 10 dc bc 93 2a 9d bc
       -0.08973303 -0.024281776 -0.026863493 -0.01918534
0002b0 6a b5 de bc fc ba 4e bd 60 97 e4 3b 8a 55 57 3e
       -0.027186114 -0.05047129 0.006976053 0.21028724
0002c0 5d 4c 87 bc d0 98 53 3d 2d 09 0a 3d 54 46 7f 3c
       -0.016515905 0.051659405 0.033700157 0.015580732
0002d0 98 93 8e 3e 56 5d 70 bd 25 f6 40 be 6e 13 2a be
       0.2784698 -0.058682762 -0.18843897 -0.16608974
0002e0 21 09 ec bd b7 dc f8 3e db 3f a8 3c 9e 14 7b be
       -0.11525179 0.48605892 0.020538261 -0.24519584
0002f0 b0 63 da be ab 87 d1 be 3b 94 fd 3e 81 a0 39 3e
       -0.4265418 -0.4092382 0.49527153 0.18127634
000300 85 a3 e5 bd e7 92 b5 be c6 e6 f7 be 5d 7e 1b 3f
       -0.112128295 -0.3546364 -0.48418254 0.6073969
000310 fd 23 fa 3e b6 be 61 3e 60 fc 24 be ba 6d ef be
       0.48855582 0.22045407 -0.16111898 -0.46763402
000320 39 33 1a 3e 8c 71 c1 3d e9 a2 d7 ba 74 a8 9e bd
       0.15058602 0.094454855 -0.0016451749 -0.07746974
000330 25 a0 13 be 90 eb 48 3e f9 b2 1a 3e b6 c4 dd 3c
       -0.14416559 0.1962111 0.15107335 0.027071338
000340 ac 12 e9 bd 6f bb 74 be da 65 8b 3e 0b a4 57 3e
       -0.113805145 -0.23899625 0.27226144 0.21058671
000350 f3 75 19 3d 56 8a 20 be 6b 45 b7 be 76 6d e4 3d
       0.037466 -0.15677771 -0.3579515 0.111536905
000360 14 60 44 3e ca df a7 3d 6c 21 cc bd 48 93 b5 be
       0.19177276 0.08196981 -0.09967312 -0.3546393
000370 0d a9 30 3c 14 3d 9f 3d 9b ef 25 3e 13 3f b8 3d
       0.010782492 0.077753216 0.16204683 0.089964055
000380 a7 be ec bd 75 47 9c bd e3 9f ab bc f7 4a 9c 3c
       -0.115598015 -0.07630817 -0.020950263 0.019078715
000390 99 bc 96 3d 61 e8 24 3d b7 5d 70 bd 18 f0 0d be
       0.07360191 0.040260676 -0.058683123 -0.1386112
0003a0 e8 e1 dd bd 25 e2 80 bc 23 34 d3 3c 29 b5 45 bd
       -0.10834104 -0.015732834 0.025781697 -0.04826847
0003b0 71 6e c2 bc 49 52 58 bd 47 e5 b1 bd cc 58 de bd
       -0.023734303 -0.05281285 -0.08686309 -0.108567804
0003c0 a8 aa 02 bd f3 56 2e bd d2 28 db bb 6b 93 9c 3c
       -0.03190103 -0.04256339 -0.006688216 0.019113263
0003d0 f5 06 b9 bd 6a 43 84 3d 10 1e 51 3c 0a 0d 09 3d
       -0.0903453 0.06458171 0.012763515 0.0334597
0003e0 9d 03 88 3d e0 bd e8 bc 2f 75 e0 bd 61 72 9a bd
       0.06641314 -0.028410852 -0.10959851 -0.07541347
0003f0 d4 8e 06 3d a9 9a 2e 3d 54 c9 06 3e 29 d5 e0 bc
       0.032851055 0.042627964 0.13162738 -0.027445393

cnn1.bias f4 [16]
000000 80 c3 8a 3e 80 4a d9 bd b7 b3 8a 3e c7 88 9d 3e
       0.2710228 -0.10609913 0.27090237 0.30768415
000010 d1 92 6f be a6 8b e8 3f c9 88 37 3f d2 44 aa be
       -0.2339585 1.8167617 0.7169309 -0.3325563
000020 68 77 53 bf df 89 dc bf 08 39 9e bb d3 a7 6b bd
       -0.82604074 -1.7229575 -0.004828576 -0.057533097
000030 fb 75 b7 3e 7d e9 d9 3f 76 28 03 bf b4 ff 35 3c
       0.358322 1.702438 -0.51233613 0.011108328

fc.0.weight f4 [120, 400]
000000 d3 83 2c 3c 20 c2 38 3d 77 d4 89 3d f6 4e 80 3c
       0.010529476 0.045107007 0.067299776 0.015662652
000010 e5 d5 22 3b ae 07 b7 3c 6c d6 bb 3c f3 97 4a 3c
       0.002484673 0.02234253 0.022929393 0.012365329
000020 db 7a 9b 3a d6 01 77 3c 02 9a 87 3d 7e 98 23 bd
       0.0011862175 0.015076121 0.066211715 -0.03994035
000030 3d d0 a4 bd 9a c1 af bc ad 75 84 3d 08 5c 8c 3c
       -0.08047531 -0.021454621 0.064677574 0.017133728
000040 4a 34 68 3c 4e 65 bb bb 44 aa 50 3c 08 f3 72 3d
       0.014172623 -0.0057188636 0.012735907 0.059313804
000050 2b 0c 45 3d 5f 25 76 3d 11 e4 4d 3c 29 32 c4 3c
       0.048107307 0.060094234 0.012566582 0.0239497
000060 5e af 90 3d 1a 19 ae 3d 00 cf b1 3d b2 5f 01 3c
       0.07064699 0.085008815 0.0868206 0.007896351
000070 c5 04 0a 3d 04 3b 8a 3b 59 96 e0 3b 51 9c 8e bc
       0.033695955 0.004218461 0.0068538603 -0.017408522
000080 d2 56 86 bd 55 bf 90 bd d6 b9 04 3a 58 d1 77 3c
       -0.065595284 -0.07067744 0.0005063092 0.015125595
000090 82 c8 2b 3c 60 de bb bc 2a 65 f2 bc 3c 52 69 bc
       0.0104848165 -0.022933185 -0.029589254 -0.014240798
0000a0 da e2 0a bd dc d2 9e bc ac 0c 74 bc b4 83 ba bc
       -0.03390775 -0.019387655 -0.014895599 -0.02276788
0000b0 01 ec 14 bd 57 49 50 be 88 4a fa bd cf 3a 2a be
       -0.036357883 -0.20340477 -0.12221247 -0.16623996
0000c0 ad 4f 05 be 2a 7d d8 bd 92 93 32 bc b6 95 b4 bb
       -0.13018675 -0.10570748 -0.010899441 -0.005511011
0000d0 6b 59 b3 bc e9 f8 64 bd b6 13 8f bc 55 69 ae 3b
       -0.021893224 -0.05590144 -0.017465454 0.005322615
0000e0 a5 d1 a5 3c 0b 00 ab bc 3f 36 dc bc 0c ad b6 3b
       0.020241568 -0.020874044 -0.026881335 0.005574828
0000f0 b0 83 47 bd 55 79 24 bd f3 dc 1e bd 33 d7 25 bd
       -0.04870957 -0.040154774 -0.038784932 -0.040488433
000100 4e 97 8e bc cf 55 47 bc b8 5b 24 3c 38 4e e0 bc
       -0.017406132 -0.012166454 0.010031633 -0.027381048
000110 76 77 37 bd d0 d6 96 bc eb ca 16 bd f0 b9 15 bd
       -0.04479166 -0.018412977 -0.03681461 -0.036554277
000120 3a a6 32 bc 58 b8 25 bd 17 db 3b bd e1 16 e2 bc
       -0.010903889 -0.040459007 -0.045863237 -0.0275988
000130 92 ec ca bd 60 dc da bc 10 c9 8f 3c 80 23 93 3c
       -0.099084035 -0.026716411 0.017551929 0.017961264
000140 63 de 34 bc bc 76 2b bc 69 16 10 3d ea d5 65 3d
       -0.011039349 -0.01046532 0.035177622 0.056112207
000150 fa 88 95 3c 7a 6e 9a bc 99 55 d9 3b 10 f5 81 3d
       0.018253792 -0.018851507 0.0066325185 0.0634557
000160 2a 49 80 3d 30 aa 23 3d 6d a6 b2 3c 90 51 34 3d
       0.06263955 0.039957225 0.021807874 0.044023097
000170 ec da 8c 3d 98 32 95 3d 70 aa be 3d e8 16 2e bd
       0.068776935 0.072850406 0.09309852 -0.042502314
000180 d2 6f 6a 3c 37 d9 a1 3d e6 c7 74 3d 5f 79 7b 3d
       0.014308887 0.079027586 0.05976095 0.061395045
000190 d0 51 4a 3c 8d e9 b9 bd 82 ec c7 bd f6 c8 1b bd
       0.012348607 -0.090777494 -0.09761907 -0.03803345
0001a0 f5 17 6c bc 86 94 c9 3d 8a 0b d6 bc 31 73 93 bc
       -0.014410009 0.09842782 -0.02612855 -0.017999263
0001b0 46 13 d6 3b 93 0b a8 3d 78 fb 30 3d 8b ef 09 bc
       0.0065330593 0.082053326 0.04320857 -0.008418928
0001c0 8d b6 ae 3b e4 45 a1 bb 55 a1 9e 3d c1 6b 8b bd
       0.0053318203 -0.0049216617 0.077456154 -0.06807662
0001d0 60 29 1e bd ae d7 7d bc f6 cd 27 bc 77 93 19 3d
       -0.038613677 -0.015493317 -0.010241976 0.03749415
0001e0 3b f3 0f 3c a6 c2 fd bc af 79 52 bc e2 58 8d 3c
       0.008786018 -0.030976605 -0.012846394 0.017254297
0001f0 c5 86 62 3d b0 fe 41 bc 7a 3b bd 3d 6e 9f 32 3d
       0.055304307 -0.011840507 0.0923986 0.043609075
000200 25 a9 0e 3d dd 81 e7 bd 66 15 43 bd 9c ff 66 3d
       0.034829278 -0.11304066 -0.04762783 0.05639611
000210 a9 1d 26 3d 32 05 9d bb 99 92 b7 bd fd 8e 78 bd
       0.04055563 -0.004791879 -0.08963508 -0.06068324
000220 7a c5 a0 bd 9d e1 cf bd 78 1e b6 bd 76 c3 79 bd
       -0.07850166 -0.10150454 -0.0889253 -0.06097742
000230 eb 4c 7e 3d d9 4e 97 bd 9d ce 9d bd 64 24 e3 bc
       0.062085073 -0.07388086 -0.07705424 -0.027727313
000240 42 40 88 3d ad 91 0a 3e 91 99 8d bc 13 ad 6d bd
       0.06652881 0.13532133 -0.01728514 -0.058026385
000250 2a c7 c9 bc 3e 5e 89 3d 81 e0 8b bd f2 30 a6 bd
       -0.024631102 0.067074284 -0.0682993 -0.08114804
000260 91 85 a7 bc 3a 56 ce 3b 42 8b 6a bc b3 3a 26 bd
       -0.020449432 0.0062969 -0.014315428 -0.040583324
000270 22 00 41 3b 53 ab d1 bc 61 05 77 bc 77 d7 b8 bc
       0.0029449542 -0.025594389 -0.015076966 -0.02256368
000280 af 49 91 bd b9 41 1a bc 0c 23 16 bd a1 c1 8f 3b
       -0.07094132 -0.009415084 -0.036654517 0.004387096
000290 26 e4 0c bd b8 4a 83 bd b9 9a 4b bd b9 11 19 bd
       -0.034397267 -0.06410736 -0.049708102 -0.037370417
0002a0 61 f4 ca 39 67 12 7a 3c e5 eb 6d bd a6 06 87 bd
       0.0003871052 0.0152631765 -0.058086295 -0.06593065
0002b0 eb 86 71 bd e7 a6 02 3d cb 91 94 3c 0b 82 0c bd
       -0.05896656 0.03189745 0.018135926 -0.034303706
0002c0 f7 32 7c 3d 32 f7 98 3d 6e cb 8c 3d ab a9 a5 3d
       0.06157204 0.07469024 0.06874739 0.08089002
0002d0 e9 0a 4b bd 0c aa 26 bd 25 f6 0b bc 93 51 8b bc
       -0.04957095 -0.040689513 -0.008542572 -0.017006671
0002e0 bb c2 80 bd eb e2 de bc 26 8b 0e bd a4 6e ba bc
       -0.06287142 -0.027207812 -0.03480067 -0.022757836
0002f0 ea c2 1e bd d2 dd 84 bd a2 a3 57 3d 92 a4 f4 bb
       -0.038760103 -0.06487621 0.052646287 -0.0074659074
000300 71 02 84 3b ee 11 7c 3b 8e b5 b3 3c 78 0d 9d 3d
       0.0040286114 0.0038462835 0.021937158 0.076685846
000310 a2 00 9c 3d eb b1 57 3c 00 28 b9 3a bd ed 9a 3d
       0.07617308 0.013164978 0.0014126301 0.07564876
000320 54 61 33 3d 35 29 93 bc 66 b6 13 3d 1d 84 9c bb
       0.04379399 -0.017963985 0.03606262 -0.0047764913
000330 3d 62 08 bd 47 94 8d 3d d0 e1 2e 3d c7 af 85 3d
       -0.033296812 0.06913047 0.04269582 0.065276675
000340 f1 2d 32 3d 29 4e b9 bb 50 71 e7 3c 3a 50 ab 3d
       0.043500844 -0.0056550694 0.028252274 0.083649114
000350 8f b0 9f 3d e3 a1 f8 3d 97 0c 80 3d 54 b7 77 bc
       0.07797348 0.121402524 0.06252401 -0.015119392
000360 50 87 0a 3d fa 85 59 3d ae 7b 73 3d b3 0c 2e 3d
       0.03382045 0.053106286 0.059444122 0.04249258
000370 6a 6a 83 bd 56 5f d6 bb ff 0a 0e 3d 9c b9 ba 3c
       -0.06416781 -0.0065421266 0.034678455 0.022793584
000380 96 f6 57 3d 32 53 ab 3c 0e 56 3e bd be 2d 0b bd
       0.052725397 0.020913694 -0.046468787 -0.03397917
000390 67 90 68 bd f2 0f 4f 3d 78 34 6a 3d 42 f8 1f 3d
       -0.056778338 0.050552316 0.057178944 0.039055116
0003a0 6e 5d f6 3b 70 bc 94 3d cb b2 8f 3d 80 c6 77 bb
       0.007518462 0.07262504 0.07016524 -0.0037807524
0003b0 b6 54 36 3c 36 bf 9e 3c 4c 4b 67 b9 48 ac 2a 39
       0.011128595 0.019378286 -0.00022057927 0.00016276643
0003c0 47 90 9e bd 03 db 80 bc 5e 32 64 bd f4 1a b6 bc
       -0.077423625 -0.015729433 -0.055712096 -0.02222965
0003d0 5b 7e 0d bd ef f1 e3 bd 05 05 86 bc 91 a5 95 bd
       -0.03454433 -0.111301295 -0.016359815 -0.0730697
0003e0 1f 58 f0 bd a5 2b e5 bd 29 70 01 3e ac 1b c1 3d
       -0.11735558 -0.11189965 0.12640442 0.09429106
0003f0 00 fc b1 3c 1f 64 58 3c 3c d1 ab bd be 88 b7 3d
       0.021726608 0.0132074645 -0.08389518 0.089616284

fc.0.bias f4 [120]
000000 74 c0 00 be 4f f4 f5 b9 2c ea 8d be 74 74 06 3e
       -0.12573415 -0.00046912066 -0.2771772 0.13130361
000010 b0 f1 9e bc a7 b1 50 3c 39 a5 9a 3c 65 39 46 bc
       -0.019402355 0.012737668 0.018877612 -0.012098645
000020 d0 b7 79 3e 2e bd e8 3d a7 d7 55 3d 6f ea b2 bc
       0.24386525 0.11364208 0.052207615 -0.021840302
000030 88 84 91 3d 78 f3 0f 3d 09 da 5c 3d 91 6c 07 bb
       0.071053565 0.0351443 0.053918872 -0.0020664076
000040 6f 2d ee bb 2e 2d 34 3d dc ee c5 3d 17 b4 22 3e
       -0.0072685997 0.0439884 0.096646994 0.15889011
000050 c2 a0 e9 3d 71 00 49 be 06 4e 3c 3e d8 fa 32 be
       0.11407615 -0.19629075 0.18389139 -0.17478502
000060 6c 70 2b 3e 9d d0 c7 bd 5a ae c6 3d f7 5e 2b bd
       0.16742104 -0.09756587 0.09701224 -0.041838612
000070 3f 27 90 3d 40 91 d7 bd 55 be b6 3d 0e a6 0d 3d
       0.070387356 -0.10525751 0.08923022 0.03458219
000080 79 ab 19 3d e9 ce 58 3d 8f 6b 12 3e 6e d5 ae 3d
       0.037517045 0.0529317 0.14298843 0.08536802
000090 b9 f0 89 bd 1f 41 90 bd 79 7f 0b 3d d4 61 e9 3c
       -0.06735367 -0.07043671 0.034057114 0.02848903
0000a0 1f 9e 79 3d b6 84 fe bb 0c a4 96 bd 83 96 4a 3d
       0.06094181 -0.007767285 -0.07355508 0.049459945
0000b0 32 a1 89 3e 5e 5a 43 3d 0c 24 04 3e 92 f0 4e 3e
       0.26880795 0.047693603 0.12904376 0.20208958
0000c0 31 d5 44 3e e1 0f b7 3d 66 79 cf bc 4a f5 e2 3d
       0.19221951 0.089385755 -0.025326442 0.110819414
0000d0 7b a8 7c 3d 01 48 81 3c fd b9 d1 3c f5 db cd bd
       0.061684113 0.015781404 0.025601381 -0.10051719
0000e0 e1 e5 64 3c a1 2e 47 3d d1 5a 76 3e 8f 18 f2 bc
       0.013970823 0.048628453 0.24058081 -0.029552726
0000f0 2c 40 68 be b0 e6 ab bc 47 11 f8 3d b0 fc d8 bb
       -0.2268073 -0.020984024 0.121126704 -0.0066219196
000100 43 74 8f 3d 7f e4 07 3e 0f cf 08 3e d3 43 82 3d
       0.07004597 0.13270758 0.13360237 0.06360593
000110 36 39 aa 3d 9e 12 d1 3b 2e 99 6c 3d 56 be ef 3c
       0.08311693 0.006380393 0.05776327 0.029265564
000120 5b 95 72 3d e3 88 35 3e 47 4d 85 3d ce e7 77 bc
       0.059224468 0.17728 0.0650888 -0.01513095
000130 cb 6a cc 3d aa d6 a9 bd 93 b3 3b 3e 6f 69 aa bc
       0.09981307 -0.08292897 0.18330221 -0.020802228
000140 b5 cf 2e 3e 4b 5b 3c 3b 5a 1f 8e bc 33 e9 cf 3c
       0.17071421 0.0028740938 -0.017348934 0.025379753
000150 6e 4d 93 3c 03 3f c7 3c 77 1b 04 be 6e 3f 31 3a
       0.017981257 0.024322039 -0.12901102 0.0006761466
000160 b0 8b 81 bc de 14 30 bd 87 9b 32 bc 2b 6f d5 3d
       -0.015813679 -0.04298865 -0.010901338 0.10421594
000170 ed bb 3b be a9 b2 54 bd 38 42 37 3e 74 d2 c9 3c
       -0.18333407 -0.051928196 0.17896354 0.024636485
000180 e5 49 08 3e 48 89 49 bd 23 75 2c bd d4 f5 05 3e
       0.13309439 -0.049203187 -0.042103898 0.13082057
000190 c3 43 91 bd 3d 3c f8 3d 08 f7 a0 bb 4f d4 0c 3e
       -0.07093003 0.121208645 -0.004912261 0.13752864
0001a0 0e ee c0 3c fe 2a bf 3c 2d ff e0 3d 5e 62 2b 3e
       0.023551013 0.02333593 0.10986171 0.16736743
0001b0 a0 94 ed 3c d8 57 8a 3e 53 97 53 bc 16 c6 67 3d
       0.029001534 0.27020144 -0.0129144965 0.056585394
0001c0 12 c4 14 bb f1 36 62 bc e1 e8 02 be 2e b0 d0 3d
       -0.0022699875 -0.013807044 -0.12784149 0.101898536
0001d0 6c 9d ac bd 74 0b f1 bd bb 30 84 bd 15 01 e6 bd
       -0.08428463 -0.11769763 -0.06454607 -0.11230675

fc.2.weight f4 [84, 120]
000000 b5 20 d8 3d 10 4e a3 3c cd df ac bd ff ce fb bd
       0.10553113 0.019934684 -0.08441124 -0.12295341
000010 f8 90 fd bd b1 40 cd bc 34 d2 32 3d 49 67 de ba
       -0.12381166 -0.025055261 0.043657497 -0.0016968037
000020 f9 66 77 3b 49 8e 2e bd 1e 93 2a bc 6c 79 ee bb
       0.0037750585 -0.042616162 -0.010411052 -0.007277658
000030 b8 ce 33 3c 7d 4e c2 3c 47 1e 7d bd 05 90 f4 3c
       0.010974579 0.023719067 -0.061796453 0.02985383
000040 61 15 bc bd 69 73 bb bd cb d9 04 3e 06 94 ba 3d
       -0.09183765 -0.09152872 0.12973706 0.091102645
000050 89 2f 3d bc c9 54 84 3d ca 30 3c bc 4e fe c0 3d
       -0.011546978 0.06461484 -0.011486242 0.09423505
000060 9c f6 82 bb fa 96 a7 bc c6 ab ac bd 12 53 3a 3d
       -0.0039966833 -0.020457733 -0.08431201 0.04548938
000070 6f 9b 28 bc 51 fd 3b bd 8f 58 08 be 32 64 83 bd
       -0.0102909645 -0.04589588 -0.13315032 -0.06415595
000080 16 82 5e 3d 5f 50 1b 3e a5 17 bf 3d 4b 00 11 3d
       0.05432328 0.15167378 0.09330682 0.03540067
000090 2b 54 35 be fa 22 09 3d d1 42 e4 3d f7 f4 2c 3d
       -0.17707889 0.033480622 0.11145557 0.042225804
0000a0 f3 fc cd 3d 9b b9 27 be 90 ef 71 3b e0 01 63 bd
       0.10058012 -0.16379397 0.0036916472 -0.05542171
0000b0 d0 00 14 3e fd 83 ea bc 8b 8d 19 bb f4 80 d9 3d
       0.14453435 -0.02862739 -0.0023430313 0.10620299
0000c0 0f ac eb bc a1 0a 47 bc 10 b3 a0 bc 89 88 92 bd
       -0.028768567 -0.01214853 -0.019616634 -0.07154948
0000d0 29 14 fa bb 92 69 08 3d 4a 10 46 bd 45 16 90 bd
       -0.007631798 0.033303805 -0.04835538 -0.070354976
0000e0 81 af 02 be 9f b7 b2 3d 8d c4 02 3e dd 51 c2 bd
       -0.12762262 0.08726429 0.1277029 -0.094882704
0000f0 a2 b3 5e bd 70 3e 74 bc e7 53 68 bc cb 6e 2a 3e
       -0.05437053 -0.014907464 -0.01418016 0.16643827
000100 36 54 da bb 7c 0f 51 3d b8 e8 d5 bc 22 72 2a bc
       -0.0066628708 0.051040158 -0.026111946 -0.010403188
000110 f7 ea 58 3c e5 75 ac 3c 35 e2 69 3b 6c 7b ba bd
       0.013239614 0.02105231 0.0035687808 -0.09105572
000120 71 fe eb 3d d3 d2 84 bc c1 9b 26 3d c6 70 a4 3d
       0.1152314 -0.01621381 0.040675882 0.08029322
000130 c2 94 6a bd c2 c0 14 bc 4c cb 33 bd 00 d6 f5 bc
       -0.057270773 -0.00907916 -0.04389505 -0.03000927
000140 87 7c 32 bd c9 53 88 bd 60 28 08 be c9 54 9a 3d
       -0.04357579 -0.06656606 -0.13296652 0.07535703
000150 ce d5 11 bd b9 1d 73 ba d6 f8 9e bd 6d 99 ef 3d
       -0.03560429 -0.00092741434 -0.077623054 0.116991855
000160 ad cf a2 bc 05 c6 42 bd 97 31 c4 3d 2e db 68 bb
       -0.019874418 -0.047552127 0.09579771 -0.0035531032
000170 93 4e a6 3c ed 81 1b bd dd f5 da 3c 35 42 7f bb
       0.020301139 -0.037965704 0.026728565 -0.0038949375
000180 96 14 03 3e 99 4a d3 bd 83 d1 47 bd 9d c4 c6 3c
       0.12800822 -0.10316963 -0.04878379 0.024263674
000190 e1 fc ae bd ec 0a fc bc ee 53 5b 3c 98 18 c9 bc
       -0.085443266 -0.030766927 0.01338671 -0.02454786
0001a0 d4 b4 36 3c ae 1f 22 be e5 46 e4 bd eb 54 9e 3c
       0.011151511 -0.15832397 -0.111463346 0.019327601
0001b0 65 a8 d1 bc 88 2d bf 3d 87 1b bc 3d 4b cf a8 3d
       -0.025592992 0.09334856 0.09184938 0.08242663
0001c0 55 ae 52 3d c3 19 62 bd 74 ef b4 bd 96 a8 c8 3c
       0.051435787 -0.05520035 -0.088347346 0.02449445
0001d0 ed d8 bb 3d 2a 8e 12 3e 42 ae c9 bc 95 eb a6 3c
       0.09172235 0.14312044 -0.024619225 0.020376006
0001e0 67 c8 0b 3e 59 05 cc bd c5 5f 89 3d 2a 74 58 3d
       0.13650666 -0.099619575 0.0670772 0.052845158
0001f0 cf ac 97 bd 53 47 e2 bc 5c 57 7b 3d b9 a7 60 3d
       -0.074060075 -0.0276219 0.06136261 0.054847453
000200 64 97 0a 3e 3e d1 14 3d 3a 86 36 bd 2f 1d b0 bd
       0.13534313 0.03633236 -0.044561602 -0.08599316
000210 57 70 28 3d cf 97 98 bd aa 98 3e bd d8 a5 cc bd
       0.04112276 -0.0745083 -0.04653231 -0.0999257
000220 f9 c4 07 be bc 6b a3 3b 49 e9 b7 bb 6d c1 ff 3d
       -0.13258733 0.004987208 -0.0056125266 0.12488065
000230 a0 b4 38 3c 4c d9 02 3d cd 51 41 bd 9f af 27 3d
       0.011273533 0.03194551 -0.047197152 0.04093897
000240 9c ea 98 3d b6 b0 cb bc dd 43 1f 3d 2a e8 10 be
       0.07466623 -0.024864536 0.03888308 -0.14151064
000250 47 3f 2f be 95 72 8c bd 02 74 3c 3b e0 42 8f bd
       -0.17113982 -0.06857792 0.002875567 -0.06995177
000260 f9 fd a8 bc 71 d2 81 3d 8a 7c be 3c c3 cb 4b bd
       -0.020628916 0.06338967 0.023252744 -0.04975487
000270 58 9d a2 3b a9 30 11 bd 71 e9 93 3d 0c 22 c2 3d
       0.0049626045 -0.035446797 0.0722226 0.0947915
000280 2e df aa 3d 40 7c 3a 3d cf a2 c7 3c 96 ca ff 3c
       0.083433494 0.04552865 0.024369625 0.03122453
000290 95 db ac 3c 5a fb c3 bd 57 9a c2 3d 14 61 43 bd
       0.021100799 -0.09569426 0.09502094 -0.047700003
0002a0 35 8b 70 3d 4b 01 68 3c 09 8b 8c 3d 47 ae ba 3c
       0.05872651 0.0141604645 0.06862456 0.02278818
0002b0 b9 e2 94 3c 3d 19 94 bd 6a d9 70 bd e8 87 8e bd
       0.018174516 -0.07231376 -0.058801092 -0.06959516
0002c0 3f b7 ea bd ae 9e 04 bd 6a 2c 43 3c cd 99 85 3d
       -0.11460733 -0.03237789 0.011912445 0.06523476
0002d0 76 3f 92 bd 2f 70 09 be 9e 5b 08 3e dd 01 99 3d
       -0.071410105 -0.13421701 0.13316199 0.074710585
0002e0 24 48 98 3d 00 be 20 3e 3f 89 fd bc 45 2d 8d 3c
       0.07435635 0.15697479 -0.030949233 0.0172335
0002f0 f1 16 91 3d 71 84 1e 3e a7 98 0d be e1 c3 e3 bd
       0.07084454 0.1548021 -0.13827763 -0.11121345
000300 f5 b2 67 3d b6 f8 f3 3c 9b d4 fb bd f3 1d c6 bd
       0.05656715 0.02978168 -0.12296411 -0.09673681
000310 65 18 c6 bc 5e 78 18 3d 47 5c 56 3d 6f c7 6e 3e
       -0.024181554 0.037224166 0.052334096 0.23318265
000320 e2 f0 a4 bd d1 a7 a2 3d 06 0f 3f bd ab d7 2f bd
       -0.08053757 0.07942165 -0.046645187 -0.042930286
000330 4d 09 41 bd 4d 92 a2 bd cc b2 6d bd 8c a6 03 bd
       -0.04712801 -0.07938061 -0.058031842 -0.032141253
000340 dd bb df 3a e9 14 8c bc 70 5b 32 3d 18 7d 99 3d
       0.0017069537 -0.017099814 0.043544233 0.07494563
000350 bc d9 9f 39 e9 80 30 bc 97 e9 52 bc e2 4f c6 bd
       0.00030489068 -0.010772922 -0.012873075 -0.09683205
000360 27 c7 16 3e d1 a0 9d 3c 37 82 ea bd d5 b5 27 3d
       0.14724408 0.019241722 -0.11450618 0.040944893
000370 18 5c a0 bc e8 ff 39 3d 19 ca 2b be 2c 64 a1 3d
       -0.019575164 0.045410067 -0.16776313 0.078804344
000380 71 c8 a1 bc 00 43 0e bc 50 56 7f 3c af bd 4c 3e
       -0.019748898 -0.008682966 0.015584543 0.19994234
000390 e9 dd c3 bc 26 63 9c 3d a7 ed 08 bd 40 a2 32 3d
       -0.023909526 0.076360986 -0.033429768 0.043611765
0003a0 42 55 ab 3d 8d a5 48 3b a4 d4 e6 bd 43 81 90 bd
       0.08365871 0.0030616254 -0.11271027 -0.07055905
0003b0 77 52 a9 bd 7b 43 9b 3c 60 f2 c0 bd 89 45 50 3b
       -0.08267682 0.018953076 -0.09421229 0.0031779727
0003c0 ca 7e b4 3c 6c 7a 03 bd 45 95 ba bc 32 c6 1d 3d
       0.022033114 -0.032099172 -0.022776255 0.038519092
0003d0 27 b2 7f 3d 3b 49 11 bc 20 03 27 3d 8b 5a 5b 3d
       0.06242576 -0.008867557 0.040774465 0.053553145
0003e0 bc b3 b5 bb 30 39 34 bc e7 d1 e1 3b c4 c4 12 3d
       -0.0055451076 -0.010999963 0.0068914774 0.03583218
0003f0 dd 36 a7 bb 75 3e 07 bc 3e cc 82 bd 64 c8 04 3c
       -0.0051029758 -0.008254637 -0.06386612 0.0081044175

fc.2.bias f4 [84]
000000 74 0c 78 3d ae 2c 86 3e 72 d9 29 3e e1 f9 0c 3f
       0.06055875 0.26205963 0.16586855 0.55068785
000010 f4 8d 9f 3d 1d b2 7d 3c 31 18 e2 3e 7a d1 ff 3d
       0.07790747 0.01548436 0.44159082 0.12491126
000020 9c e3 6a 3e 56 32 f1 bd e3 56 c2 3d 04 e7 96 3d
       0.22938389 -0.11777179 0.094892286 0.073682815
000030 bd c4 83 3e 64 c1 b2 3e 9e ed 8e 3e 1d 9d 99 bb
       0.25736037 0.3491317 0.27915663 -0.004687919
000040 b3 ce 5f bd 97 78 86 3e d4 43 88 3e 40 ee 51 3e
       -0.054640483 0.26263878 0.2661425 0.20501041
000050 32 d6 ec bd 55 93 06 3f fc b7 2b 3e af 5f 67 3e
       -0.11564292 0.5256856 0.16769403 0.22595094
000060 4c 96 42 3e 4e 02 de bc 35 ac 15 3e 23 9e 4d 3e
       0.19002646 -0.027100708 0.14616473 0.20079856
000070 bf 26 0a 3e e9 b4 64 3e 72 f6 9c 3d 0e 70 52 3e
       0.13491343 0.22334637 0.07664193 0.20550558
000080 f7 63 0c 3d ed ea 3b 3e df ac 8a 3e f7 be f8 3e
       0.03427502 0.18351336 0.27085015 0.48583195
000090 73 08 0f be 35 07 0c 3e 51 69 69 3e 4d f1 d8 3d
       -0.13968067 0.13674624 0.22794081 0.105928995
0000a0 89 e5 e7 bd f1 33 b6 3d d9 77 47 3d c2 ff c8 3d
       -0.11323077 0.08896626 0.04869828 0.09814407
0000b0 a1 6d 1f 3e 8a a5 43 3e 31 a9 04 3f 5a 97 ea bd
       0.15569164 0.19106117 0.51820666 -0.11454649
0000c0 b5 0f 53 3d 3c 46 49 3d 5b a8 21 3e 7f 49 1b 3e
       0.05152865 0.049139246 0.15786879 0.15164755
0000d0 f7 a5 e7 3d 5c 00 80 3e 61 04 00 3e 1f da 38 3e
       0.11310952 0.25000274 0.1250167 0.18051957
0000e0 bc d6 0e 3d a4 ae 28 bd d9 38 09 3e 15 bb b5 3e
       0.034872755 -0.041182175 0.13400592 0.35494295
0000f0 ba 1b 9e 3e b0 14 ad 3d 5f e3 bd 3d bd 9c e5 3d
       0.3088053 0.084512115 0.09271883 0.11211536
000100 05 a2 52 3d 4d 2a 4c bc 03 9e 9f 3d b7 0e 26 bd
       0.051424045 -0.012461257 0.0779381 -0.040541377
000110 7a 28 cc 3e ac 98 0d bc 44 99 24 3e b0 56 62 3e
       0.3987463 -0.008642357 0.16074091 0.22103381
000120 1c 40 c0 bc c9 96 e1 3e 9c af 9d 3d 4d 26 b7 3e
       -0.02346807 0.44060352 0.076995105 0.3577141
000130 5f f0 19 3d 23 77 f9 3e cb 9f b9 3e 63 59 de 3e
       0.03758275 0.48723707 0.36254725 0.43427572
000140 c8 cd 82 3e 2c cb 41 bd 95 e8 70 3e dd 88 f1 bd
       0.25547624 -0.0473129 0.23526223 -0.11793683

fc.4.weight f4 [10, 84]
000000 3a 64 a0 bd 5e c4 e3 3d ce 20 b1 3b b2 c7 2f 3e
       -0.07831617 0.111214384 0.005405522 0.17166021
000010 ae 92 cb bb 83 60 f6 3b 23 eb 25 be fe 0b 14 be
       -0.006212554 0.0075188293 -0.16202979 -0.144577
000020 fd 4a 9a be bf 93 86 3e 92 9b b6 3c 71 97 91 bd
       -0.30135337 0.26284596 0.022290979 -0.07108963
000030 1f 84 2f bc 62 88 61 be c5 03 05 be e5 bb 07 3e
       -0.0107126525 -0.22024682 -0.12989719 0.1325527
000040 7f c2 7a 3e b2 34 ff 3d 58 f5 11 bd 67 94 21 be
       0.24488257 0.12461223 -0.03563437 -0.15779267
000050 40 e2 9d 3e a0 d0 08 be d5 e6 95 bd 13 b8 b4 3d
       0.30836678 -0.13360834 -0.07319418 0.08824172
000060 76 3a c3 3d 68 19 b1 bc c2 52 8e 3d 71 75 bd bd
       0.09532635 -0.02161856 0.069493786 -0.09250916
000070 86 30 b1 3d 35 89 ac 3c 46 2a c5 3e 36 0d 55 3b
       0.08651833 0.02106152 0.38508815 0.0032509095
000080 83 dc f5 3c a9 9e 81 be 9f d9 66 3d c3 ed 01 be
       0.030012375 -0.2531636 0.056359883 -0.12688355
000090 fa d6 be 3b 26 db 63 3e c2 d1 41 3e 25 2a 08 3d
       0.005823967 0.22251567 0.18927673 0.033243317
0000a0 8b ce 04 bd 3d 35 8c bd eb 5f 11 bd 20 ed db 3d
       -0.032423537 -0.06846092 -0.035491865 0.107385874
0000b0 4b eb b4 bd 3f ec 3c bd 94 9a 8f be 07 69 8b 3e
       -0.08833941 -0.04612374 -0.2804762 0.27228567
0000c0 7a 21 0b bd ee 65 51 3e 4c 5f 2d 3e 73 e4 27 bd
       -0.033967473 0.2044904 0.16930884 -0.04098935
0000d0 da ad 85 bd 6a 43 6d bd f6 5d 2d 3e 65 07 c8 bd
       -0.065273 -0.05792562 0.16930375 -0.097670354
0000e0 e5 95 dd bd 9b 57 78 bc 92 84 3a 3d cc 53 fe 3c
       -0.10819606 -0.0151576055 0.045536585 0.031045817
0000f0 8b a3 08 be 2d 07 ef bc e2 2f 66 3e 4f fe 3d 3e
       -0.13343637 -0.029178226 0.22479203 0.18554042
000100 db b9 3e be b3 6d 82 3e fb 96 ab bc ea bb 7d 3e
       -0.18625586 0.2547432 -0.020946017 0.24778715
000110 16 ec 97 be c0 57 a3 bd ea 9e 63 bc 7c 43 8f 3e
       -0.29672307 -0.07975721 -0.0138928685 0.27981174
000120 5d b4 ce bd bf 19 7c be d1 bb 7a 3d 0e 48 1a be
       -0.10092995 -0.24619196 0.061214272 -0.15066549
000130 03 d2 b0 3b 75 c2 b3 bd 5e 14 d5 3d ac ec 0c 3d
       0.005396129 -0.08777324 0.10404275 0.034405395
000140 6d f1 85 3e 55 89 70 3d a4 24 87 3d 0c 61 84 3e
       0.26160756 0.05872472 0.065987855 0.2585529
000150 05 63 cd bc 7d 8e 9a bd b1 02 45 be 24 83 2e be
       -0.02507163 -0.07546709 -0.19239308 -0.17042214
000160 dc 25 6e bd b5 05 4b bd 88 43 d1 3d 10 3e 0f 3e
       -0.058141574 -0.04956599 0.10217959 0.13988519
000170 2d 7a d4 3d 3d 8f 3b 3e 8b 6c 06 bd e3 8b 5c bd
       0.10374866 0.1831636 -0.03281836 -0.053844344
000180 52 85 72 be 72 3f d5 bd db fa 31 be 00 60 14 bd
       -0.2368367 -0.10412492 -0.1738085 -0.036224365
000190 ac 9c 3c be b0 ca af 3e 5a 37 e9 bd 91 80 2f bd
       -0.1841914 0.34334326 -0.113875106 -0.04284722
0001a0 bd 7a cc bd b8 0b 63 bd cd e4 aa 3d d7 8e 90 3e
       -0.09984348 -0.055431098 0.083444215 0.28233978
0001b0 7b 6b b9 3c a5 ef bf 3d 75 80 ee bd 61 1e e7 3d
       0.022634258 0.093718804 -0.11645595 0.11285091
0001c0 27 82 2a 3e c1 1b 3d be 30 11 a1 bd 22 b4 2f be
       0.16651212 -0.18467619 -0.078646064 -0.17158559
0001d0 79 92 14 bc 0b 04 74 3e f0 65 94 be 56 c5 13 be
       -0.009068125 0.23829667 -0.28984022 -0.14430746
0001e0 e0 dc 80 3d fd 70 44 be 20 1f c3 bd c3 b9 b0 3c
       0.062921286 -0.19183727 -0.09527421 0.021572953
0001f0 bd 65 c0 3e 7d 7a 85 bd cb 7a ed 3d 4a 4d 07 3e
       0.3757762 -0.065175034 0.115956865 0.13213077
000200 0f ff 18 3e 29 54 01 be 44 a3 22 be 98 ac a8 3d
       0.14941047 -0.12629761 -0.15882593 0.08236045
000210 17 5c 65 3e 70 15 fe bd eb 40 90 3e d0 19 1e be
       0.2239841 -0.12406433 0.28174528 -0.15439534
000220 9a bf 03 3e 97 d6 1c 3e e0 79 89 bd 6a 35 76 be
       0.12866059 0.15316235 -0.06712699 -0.24043813
000230 10 a8 60 3e 11 24 83 3d fb e1 4b be 94 96 7e be
       0.21939111 0.064033635 -0.19910423 -0.24862128
000240 9b 8f 08 bd 27 6e 3d 3e bd 3e 2d be ae 85 0e be
       -0.033340078 0.18499051 -0.16918464 -0.13918182
000250 fa 3d d2 3e 60 0c 1e bd 1f 1c ab bb 19 c6 82 3d
       0.4106291 -0.03858602 -0.005221858 0.063854404
000260 2d 3f 58 be 28 4e 01 3e 6e a2 03 be 29 7d 1f 3e
       -0.2111785 0.1262747 -0.12854931 0.15575089
000270 0a c9 b3 bd 2f f7 61 be b1 18 8b 3e 7d 59 17 be
       -0.087785795 -0.2206695 0.27167276 -0.14780231
000280 02 f4 38 3e 5e 7b 4a be 5c ad 58 bd 3d 74 a4 be
       0.18061832 -0.19773623 -0.052899703 -0.32119933
000290 f0 53 30 be cc 14 13 be b4 f5 04 be d1 d0 05 3e
       -0.1721952 -0.14363402 -0.12984353 0.13067938
0002a0 b7 c6 c1 3e 9f 24 9e 3e cc 90 2e 3e 7b 51 ce 3c
       0.3784692 0.30887315 0.17047423 0.025185337
0002b0 26 ac a8 3e d4 e2 9d bd db 07 25 3e ea e4 2e be
       0.3294384 -0.0770928 0.16116278 -0.17079511
0002c0 9b d6 f7 3c 98 b7 db bd 32 f1 5c be 3e 17 4d 3e
       0.030253699 -0.10728377 -0.21576384 0.20028397
0002d0 80 b8 72 3e ed 26 83 3e f9 12 b9 bd b8 82 63 3e
       0.23703194 0.25615636 -0.09036822 0.22217834
0002e0 8d 06 af 3d 54 5c 26 be 9e f7 35 3e 2d 2b 19 3e
       0.08546171 -0.16246158 0.1777024 0.14957877
0002f0 6e 63 2c 3d ec b0 17 be 51 18 22 be 8c 6c 49 be
       0.04208701 -0.14813584 -0.15829588 -0.19670314
000300 d3 18 56 3e 98 d1 04 bd 38 de 6b 3d e2 9b e1 bd
       0.20907907 -0.032426447 0.05758497 -0.110160604
000310 20 23 0e be fe 22 67 bd 83 c9 49 be 79 7d 98 be
       -0.13880587 -0.056429856 -0.19705777 -0.29783228
000320 e3 cb d7 bd f3 ea f7 bd e2 2a d4 3c c9 a2 a9 3c
       -0.10536935 -0.1210536 0.025899354 0.020707505
000330 73 25 63 3e b6 67 f3 bd 0e 3f 9f 3e c3 23 c4 bd
       0.22182254 -0.11885016 0.31102794 -0.095771335
000340 5a 4d eb 3d 04 3f b2 3d 9f 07 55 3e 1c 24 38 3d
       0.11489363 0.087034255 0.20803688 0.04495631
000350 4f c5 41 3e 01 ad 0a 3e 99 d2 8d 3e 77 4a b6 3c
       0.18922924 0.13542558 0.27699736 0.022252304
000360 1e 53 2e be bb 34 55 3e 29 92 b2 bd 36 04 63 be
       -0.17023894 0.20820896 -0.08719284 -0.22169575
000370 a0 80 27 3d e3 da dd bd 0e f4 2c bd 55 2e fe bd
       0.04089415 -0.10832765 -0.042224936 -0.12411181
000380 c9 6f f8 bd 84 c3 b4 bd e3 46 c8 3c fc d4 5b 3d
       -0.12130696 -0.08826354 0.024447864 0.053669915
000390 04 d7 4a be 3c aa d6 bd 4f d7 2f 3e 25 fb 97 3e
       -0.19808584 -0.104816884 0.17171977 0.29683796
0003a0 a7 fe 8c 3d 10 f6 c2 3c ac ad 16 be 88 22 87 bc
       0.068845086 0.023798972 -0.14714688 -0.016495958
0003b0 bc 1f 4d bd 5f 9b dd bd 0c bb 4b 3d 33 e2 98 bb
       -0.050079092 -0.1082065 0.04973893 -0.004665637
0003c0 45 dd fe 3d 8d e0 9b 3d 23 f2 f7 bd 40 e6 1c be
       0.124445476 0.07611189 -0.12106731 -0.15322208
0003d0 d4 37 1d bd 77 28 9a bd f1 0a 09 be ec f7 b5 3d
       -0.03838332 -0.07527249 -0.1338308 0.08885178
0003e0 39 31 e9 bd 63 c9 b2 3d 48 36 1e 3e 0a 0a 04 3e
       -0.113863416 0.08729818 0.15450394 0.12894455
0003f0 80 20 29 3d ee be b5 bd d5 d4 34 bc fc 62 c6 bd
       0.04129076 -0.088743076 -0.011037071 -0.096868485

fc.4.bias f4 [10]
000000 00 c4 92 be b5 93 0d bf 1a 1c ef bd 71 a0 ca 3e
       -0.2866516 -0.5530351 -0.11675282 0.39575532
000010 af 9a 5a 3f 7b 63 41 bd 4f 77 7b 3d cf 34 12 be
       0.8539228 -0.047214013 0.06139308 -0.14277957
000020 51 7a 28 3e f1 7d 82 be
       0.1645291 -0.2548671
